models/model.ckpt (torch, 8756 bytes, 5 tensors)

layers.0.weight f4 [16, 88]
000000 ed d3 e3 3d 80 74 85 ba 79 88 bf bd cb 4a 3c ba
       0.11124406 -0.0010181814 -0.09352202 -0.0007182776
000010 61 b1 90 bd 8b 1e aa 3d ea 56 5d bd 3a 18 7e bb
       -0.07065082 0.08306607 -0.054037966 -0.0038771764
000020 a6 13 da bc 43 51 cc 3d 2d 0e 9c bd 44 ed c0 bd
       -0.026620697 0.09976437 -0.07619891 -0.09420255
000030 f0 fc 16 3d 32 14 73 3d d3 d5 70 3d 65 81 2f bc
       0.036862314 0.05934543 0.05879767 -0.010712002
000040 26 45 86 3d d2 42 2b bc 1c 6a 45 3d 31 84 b1 3d
       0.06556158 -0.010452943 0.048196897 0.08667792
000050 a0 80 17 3c b3 62 6d 3d b2 87 ff bb 2e 0a ba bd
       0.009246975 0.057955455 -0.0077981586 -0.09083973
000060 74 e8 8e bd 10 01 9c bd 9e e6 9c 3c 33 2d 45 3c
       -0.06977931 -0.0761739 0.019152936 0.012034702
000070 bf e6 ff bb 9f 01 a9 3b ff 2a 03 3d 1b 69 25 bc
       -0.0078094895 0.005157664 0.032023426 -0.01009586
000080 6e 94 bc 3d 85 f9 82 bd 9c 12 80 bc 17 8c 3a 3d
       0.09207998 -0.06395248 -0.015633874 0.045543756
000090 4d 61 79 bd d3 2e 37 bd 8e 35 0a 3d 18 81 1a bd
       -0.06088381 -0.04472239 0.03374248 -0.03772077
0000a0 bf 10 d1 3d d8 2a bc bd 05 fa 56 3d ad 19 58 3d
       0.10208272 -0.09187859 0.05248453 0.05275886
0000b0 e0 5f df 3c 25 b0 c6 bd 91 bc ee 3c cc 63 af bc
       0.027267396 -0.09701566 0.02914265 -0.021409892
0000c0 96 9a d0 bd f4 5b 7b bc 6c a1 a5 bd f7 f5 c6 bd
       -0.10185735 -0.015341748 -0.080874294 -0.09714883
0000d0 96 77 41 bd f4 e0 0c bc 7a 00 2e bd 06 1f 71 3d
       -0.047233187 -0.008598555 -0.042480923 0.058867477
0000e0 ea 00 49 3c f7 07 8d 3d da 7b 6c bc 21 4a da bc
       0.012268284 0.06886285 -0.014433825 -0.026646676
0000f0 cb 72 04 bd 01 b7 bb 3d 8a 95 d4 3c 2f 75 5d bd
       -0.032336038 0.091657646 0.025950212 -0.054066833
000100 0f a1 84 bd ce 81 b5 bd 8d fa b0 3d 69 72 28 bd
       -0.06476032 -0.08862649 0.08641539 -0.041124735
000110 8b 4b b2 3d a5 8d 96 bd a4 62 b0 3d 2b a1 af bd
       0.08705815 -0.07351235 0.08612564 -0.08575662
000120 4e ff 26 3d e7 d1 d5 bc ef a4 7d 3d 5c 72 95 bd
       0.04077082 -0.026101066 0.06192487 -0.07297203
000130 dc db d5 bd c6 99 86 bd 1d 70 95 bc 51 32 18 bc
       -0.104423255 -0.06572299 -0.018241936 -0.00928934
000140 68 6f c4 bd 7c 6d c4 3d da 8b 14 bd d3 68 93 bd
       -0.095915616 0.09591195 -0.036266185 -0.07197728
000150 be e8 44 bd 86 3d 3f 3d 39 cd 79 3d f3 32 ca 3d
       -0.048073523 0.046689533 0.06098673 0.09872999
000160 0b b4 4a bd 40 ef d5 3d 9c f1 d8 3d 30 5e bc bc
       -0.04948811 0.10446024 0.10592958 -0.02299413
000170 ba 41 93 3d 25 bd 3c bd 30 1c dd 3c 40 af 1a bb
       0.07190271 -0.04607882 0.02699098 -0.0023602992
000180 2e 1d 9f 3d 2b 40 b1 bd 40 1b 73 bd 18 d2 7a 3d
       0.077692375 -0.08654817 -0.05935216 0.061235517
000190 60 6d 4a bb 64 e3 9d bd 26 12 09 bd f4 3d 00 3d
       -0.0030887946 -0.07709387 -0.033464573 0.031309083
0001a0 c0 b3 5a 3d 40 8a 83 bc 48 b7 86 3d 8c b1 85 bd
       0.05339408 -0.016057134 0.06577927 -0.06528005
0001b0 0c 86 90 3c bc 57 f4 bc dc c1 b8 bd d6 77 9e 3d
       0.017642044 -0.029826991 -0.09021351 0.07737701
0001c0 78 fb 75 3d 88 b2 17 3d ec 20 67 3d 2c f9 cd 3d
       0.060054272 0.037035495 0.05642788 0.100572914
0001d0 ec 2f 63 3d fa 9d 89 3d a8 51 bb 3d 50 96 bb 3c
       0.055465624 0.06719585 0.09146434 0.022898823
0001e0 76 12 9a bd 37 f0 99 bd 7c 8a b6 bc a8 5a 95 bd
       -0.075230524 -0.075165205 -0.022282831 -0.07292682
0001f0 48 36 a0 bc 52 94 94 3d 75 8b 99 bd 74 af a1 3d
       -0.019557133 0.07254852 -0.074973024 0.07894793
000200 70 9e 90 3c 30 ec 0f bd 80 4b 5a ba 0c 50 b9 bd
       0.017653674 -0.035137355 -0.00083272904 -0.09048471
000210 d0 77 d4 bd f0 f7 b9 bc 0a e1 80 3d 60 8f bc 3c
       -0.10374415 -0.022701234 0.06292923 0.023017585
000220 cf 17 b3 bd 0c 27 cd bd ce e9 aa bd 40 d0 03 bd
       -0.087447755 -0.10017213 -0.08345376 -0.032181025
000230 4c 98 99 bd 60 75 24 bd 98 86 bb 3c 50 c9 b2 3d
       -0.074997514 -0.040151 0.022891328 0.087298036
000240 70 5a 5b 3d d0 76 74 3d d4 7f 05 3d d8 f2 01 3d
       0.053553045 0.05968362 0.03259261 0.031725734
000250 d3 37 5a bd 38 f4 cb 3c 8c 1d 95 bd 54 c1 62 3d
       -0.053275894 0.024896726 -0.07281026 0.055360153
000260 1c 31 ce 3d e0 b5 d9 bb 30 a8 2b 3d f6 68 20 bd
       0.100679606 -0.0066439956 0.041908443 -0.0391626
000270 90 4a 47 bc 40 18 14 bb 74 43 a4 3d d4 50 4f 3d
       -0.012163773 -0.0022597462 0.08020678 0.050614193
000280 d0 9d bc 3b 14 59 7c 3d 98 e8 6c bd e0 31 1a bb
       0.0057561174 0.06160839 -0.057839006 -0.0023528263
000290 13 da ac bd e8 21 34 bd 48 4a 90 3d 88 3d 9b 3c
       -0.08440032 -0.043977648 0.07045418 0.018950239
0002a0 64 9d 87 bd 6c 05 a5 bd 4c 98 d4 3d c0 e6 b6 bd
       -0.06621817 -0.08057675 0.10380611 -0.08930731
0002b0 30 60 03 3d 8a af a7 3d 74 08 53 3d e0 75 d2 3b
       0.032074153 0.08187778 0.051521733 0.006422743
0002c0 96 00 1d be 93 73 1b bd 49 0a c1 bd d5 ea a0 3d
       -0.15332255 -0.037952017 -0.0942579 0.07857291
0002d0 22 04 b6 bb a8 f7 78 bc d7 54 1d 3d 9e d7 bb 3c
       -0.005554692 -0.015195765 0.038410988 0.022929963
0002e0 98 ac 58 3c 11 97 99 3d 4b 25 96 3c a1 85 b1 bd
       0.013224743 0.07499517 0.01832833 -0.08668066
0002f0 0c cb 88 3d c9 53 a0 3d e6 ec 82 bd 7d fe 8b 3d
       0.06679353 0.07828481 -0.06392841 0.06835649
000300 2d d8 ea bb 9a 80 9d 3c 8a 6c 62 3d 0a e8 65 bd
       -0.0071668834 0.019226361 0.055279292 -0.056129493
000310 2e 74 a4 bd 33 e9 0f bd 86 32 a7 bd 0e 87 40 3d
       -0.08029972 -0.035134505 -0.081639335 0.0470038
000320 7e c7 d2 bd a8 9c bb 3c 3a d9 c9 3d 86 c6 6e 3d
       -0.10291956 0.022901848 0.09855886 0.058294795
000330 93 52 70 bd d4 d3 82 bd 34 13 7a bd 94 83 8e 3c
       -0.0586725 -0.06388059 -0.06105347 0.017396726
000340 02 a0 55 3d 0d 84 d7 3d 0c 2f 89 3d 68 81 1c 3d
       0.05215455 0.105232336 0.066984266 0.03820935
000350 d0 ea 25 bd 2d a0 c5 3d 0b 88 29 3d ab 5b dc bc
       -0.040507138 0.09649692 0.041389506 -0.02689918
000360 f4 3e b9 bd 5b f7 dd bd 12 1b ec bb cc 9c f3 ba
       -0.090452105 -0.10838195 -0.0072053755 -0.0018586158
000370 88 8f 71 3c 0e aa 4f bd 6d 72 da 3a 69 62 38 3d
       0.014743693 -0.050699286 0.0016666182 0.045015726
000380 d2 98 d8 3c 0f b1 5c 3d 7f e1 8d 3c 64 fd bf bd
       0.026440058 0.053879794 0.017319439 -0.09374502
000390 d5 a5 4f bd 36 62 71 bd 20 8e 86 3d c8 8a 43 3d
       -0.05069526 -0.058931552 0.06570077 0.047739774
0003a0 ce ca 16 bd 4f 3a 99 bd 30 d0 ad 3d fa 2e ae 3d
       -0.036814503 -0.074818246 0.08486974 0.08505054
0003b0 20 58 ba bd aa 4c 95 bd 15 5a 44 3d 68 75 c0 3d
       -0.0909884 -0.07290013 0.04793747 0.093973935
0003c0 3d 82 ac bd d5 d1 02 bd 63 dc 74 3d ba 1b a8 3d
       -0.084232785 -0.031938393 0.05978049 0.082084134
0003d0 ff 22 45 3c a3 81 76 3d ae 32 b6 3d b0 30 72 3d
       0.0120322695 0.060182225 0.08896385 0.059128463
0003e0 34 31 6f bd a3 00 b7 3d 93 a8 a3 3d b6 d2 c5 bd
       -0.058396533 0.08935668 0.07991137 -0.096593305
0003f0 27 21 d7 bd a1 41 0c 3d c5 83 6d 3d d9 e4 96 3d
       -0.1050437 0.034242276 0.057986993 0.07367868

layers.0.bias f4 [16]
000000 35 6d e8 bc 1f ba d5 bd 0c 61 8e bc 15 22 2e 3d
       -0.028372386 -0.104358904 -0.01738026 0.042512972
000010 d5 8a ac bd 20 a0 58 bd 8e 3a 80 bd 03 6a cc 3d
       -0.084249176 -0.052887082 -0.062611684 0.09981158
000020 e8 d2 03 bc 40 91 f6 3c 62 0b ad 3d 58 31 8d 3d
       -0.008045889 0.030098557 0.08449437 0.06894177
000030 26 56 3c bc 18 be c5 bd 5a 43 26 bd 30 df b6 bd
       -0.011495149 -0.09655398 -0.040591575 -0.089292884

layers.2.weight f4 [8, 16]
000000 81 71 a0 3c 00 eb cf bd 00 68 1e 3d c0 06 c4 bb
       0.019585373 -0.101522446 0.0386734 -0.00598225
000010 52 67 7a 3e 05 7e 38 be 48 2a 5b be 33 11 9e bd
       0.24453476 -0.18016823 -0.21402848 -0.07718124
000020 ac 5b f1 bd c8 cf 43 3d b0 6d 23 bd 70 5a 56 3e
       -0.11785063 0.047805578 -0.039899528 0.20932937
000030 68 53 08 3e 44 1b dd 3d 40 a0 af 3d 4d 80 70 3e
       0.13313067 0.10796216 0.08575487 0.23486443
000040 1a 50 2b be 0c a3 5f 3e 8d bf fb 3d 8d 2d cf 3d
       -0.16729775 0.21839541 0.12292395 0.1011611
000050 48 0d 62 3d ad 89 0f 3e 0d 59 96 bd 8d 00 7c be
       0.055188447 0.14017363 -0.07341204 -0.24609585
000060 88 52 19 3e e6 b1 01 be 6a db 27 3e 60 af 0d 3c
       0.1497289 -0.12665519 0.16392294 0.00864777
000070 7c a7 f5 3d 34 30 64 3e 88 74 e5 bd 97 73 b2 bc
       0.11994836 0.22284013 -0.11203867 -0.021783633
000080 13 62 b8 3d 24 8e 2d 3e 62 65 9d 3d 78 6d 07 be
       0.09003081 0.16948754 0.07685353 -0.13225353
000090 c4 62 d8 bd 7a a4 2c be ea 3c 19 ba cc 92 8f bd
       -0.10565713 -0.16859618 -0.0005845564 -0.07010421
0000a0 2c f6 fe bd f0 16 1e 3d 0e dd 1e be 00 d3 3f bb
       -0.12449297 0.038596094 -0.15514013 -0.0029270053
0000b0 31 f7 ff bd ba 68 26 be 7c 5f 4c be cb e4 0e 3e
       -0.1249832 -0.16250888 -0.199583 0.13954465
0000c0 c2 ed 7b bd 68 1e d9 bd 2a 01 25 be 8a 2a ee 3b
       -0.06150604 -0.10601503 -0.16113725 0.0072682546
0000d0 80 6c 34 3e 71 fd c2 3d e5 60 8f 3e 58 bc 53 bd
       0.17619514 0.09520996 0.28003612 -0.05169329
0000e0 f0 e1 22 bd 0c 07 c6 3d 6c 6b 60 be 20 7b 44 be
       -0.039766252 0.09669313 -0.21915978 -0.19187593
0000f0 96 fb 3f 3e e4 09 81 bd 70 9f be 3d a7 7d d1 bd
       0.18748316 -0.063007146 0.09307754 -0.102290444
000100 e5 70 82 3c 40 8c 4f be a2 65 6b 3e b3 13 13 3d
       0.015922973 -0.20268345 0.22987989 0.03590746
000110 58 71 00 3e 7e f7 19 be 38 30 16 bd 2a e5 9f 3d
       0.12543237 -0.15035817 -0.03666708 0.078073815
000120 ca b9 10 3e d4 88 eb 3d 74 b2 bb bd fc ce 5c 3e
       0.14133373 0.11500707 -0.091648966 0.21563333
000130 2d c3 13 be d0 c8 d1 3c ec 8e 8b bd d7 95 69 3c
       -0.14429922 0.02560845 -0.068143696 0.014256916
000140 6d d0 d6 bd c2 ae 13 be f4 af 2a 3e b6 a8 03 be
       -0.10488973 -0.14422134 0.16668683 -0.12857327
000150 96 1c 34 be cb f3 f1 bd 6e 50 c5 bd f6 43 1a 3e
       -0.1758903 -0.11814078 -0.09634481 0.15064988
000160 74 a2 e2 bd f0 10 d0 3d 70 07 2d bd 12 4e 57 be
       -0.11066142 0.101594806 -0.04224342 -0.21025875
000170 cd 75 0f be 90 fc 06 bd 2c 96 e2 bd dd 7d ac 3d
       -0.14009781 -0.032955706 -0.11063799 0.08422444
000180 96 81 dc 3c 8e 21 5d be cc 24 5e bd b6 72 68 3d
       0.02691726 -0.21594831 -0.05423431 0.056750022
000190 d2 d0 2a 3e e8 30 24 3e a7 14 6f be 13 9b 27 3c
       0.16681221 0.16034281 -0.23347722 0.010229844
0001a0 3a e1 21 be d0 e7 20 3e bb 33 36 3d 2c 6f 45 3e
       -0.15808573 0.1571343 0.044482928 0.1928069
0001b0 af 39 69 3e bc 89 07 3e 10 36 80 bc de e4 98 3d
       0.22775911 0.13236135 -0.015650779 0.07465528
0001c0 ac 66 3e be 10 db 8b bd ca f7 0f be 41 61 5e 3e
       -0.18593854 -0.06828892 -0.14059368 0.21716787
0001d0 e2 a5 42 be d3 9b 62 3e b6 55 71 be 47 01 0b 3d
       -0.19008592 0.22129755 -0.23567852 0.033936765
0001e0 8c f7 3c 3e ba 76 3c 3e a9 fc 2d bd fc 43 da bd
       0.18453807 0.18404666 -0.042477284 -0.10657498
0001f0 1d 01 40 3e f0 62 e6 3c e0 b2 68 be 2f 82 7a 3d
       0.18750425 0.028123349 -0.22724485 0.06115931

layers.2.bias f4 [8]
000000 31 27 11 3e f3 6c 5c bc bc 83 e6 3d 32 d4 bd 3d
       0.14175107 -0.01345371 0.11255595 0.09268989
000010 af 1b 17 be 80 32 47 be ce de 32 3d 40 01 71 3d
       -0.14756654 -0.19452858 0.043669514 0.058839083

layers.4.weight f4 [1, 8]
000000 23 2b a6 be a0 82 27 be 0a 05 bf bd aa 51 8e 3e
       -0.32454786 -0.16358423 -0.09327133 0.2779668
000010 03 48 c9 bb 4e 30 49 be d6 ed a9 3d bd 93 60 3d
       -0.0061426177 -0.19647333 0.08297317 0.054828394
